policy_4099.pt (torch_old, 70882 bytes, 7 tensors)

base.0.weight f4 [128, 2]
-0.096718065 0.8581087 -0.5076565 -1.7838275 -0.24050342 -1.9685833 -1.4211422 -0.5187451
-1.3377386 1.9407972 -0.27195948 -1.8305972 0.9176248 0.9243588 -0.18253335 -2.0230207
1.5895429 4.3645563 -0.6571596 -1.8756654 -0.89048606 -1.0808583 0.38394284 0.84386086
0.34574166 -1.7335675 -1.6598704 -0.92583966 -1.2789302 -2.1155508 -0.77984494 -1.1087976
0.76858723 0.81804407 0.37806675 -1.1990027 2.418955 -1.5373259 0.8145331 1.9587859
0.39126927 0.9307542 -1.1109943 -0.22315827 -0.4222016 -1.4768337 0.5700905 4.6841965
0.14893022 -1.3419776 -0.07315938 -0.4939076 0.57151955 4.6058097 -0.6193371 -1.8237778
-0.10636865 3.6370606 -1.1096284 -0.7613511 0.30171174 5.3984337 1.7362833 3.966897
-0.75901246 -1.0364563 0.31968278 0.3312319 -1.8188673 1.6434629 -0.022669144 -5.781715
0.045356095 0.84597677 1.8923241 2.5957923 -1.1174407 -3.3265338 0.34945774 5.0500293
0.33888698 -1.4107232 0.5762179 -1.550115 -1.5142561 1.2195939 -1.2458303 -1.0937896
-0.45920333 -2.5928788 0.38214347 -1.3470044 1.5635296 4.1951156 0.2334563 1.3450782
-1.4617138 -0.7356349 -1.2318366 -0.6441198 0.3731361 0.96372634 0.38149932 0.65142906
0.10750481 -0.70829386 0.9919951 0.14251217 0.45823383 3.0573807 0.5888745 -2.913357
0.15277883 4.376721 0.24426074 -5.5684714 -0.42011154 4.721262 -0.5921223 0.6202589
0.81714076 -3.2850008 0.03883345 5.0939045 1.4867333 3.888412 -0.38919088 -1.1093819
-0.72282386 3.349008 0.8449399 -1.4670017 2.2308736 0.9264938 -0.008046588 4.9206276
1.9348265 3.7528372 0.86787695 -4.1405516 0.47789526 -4.423457 0.3634461 -1.8175775
1.9455324 -0.86486274 0.3802486 -1.0118905 2.2571642 -1.392013 -0.97883105 0.49484897
-1.2379442 -5.079253 1.525574 3.2896707 0.21332653 -5.7476945 -0.28123733 -1.9613937
1.856349 2.3675675 0.15264452 0.24930426 -0.33620045 0.51473194 -1.5138232 1.0273836
0.3584992 -1.1402959 -1.453753 -0.9758538 -0.16481388 -1.1587739 0.5457869 -3.9147246
0.29122618 -0.23876339 0.860079 -4.6392426 -0.15447254 0.4421771 -0.15388407 -1.7051299
-0.06647759 -1.1535878 0.40316978 -0.17151043 1.1147996 3.3632846 1.8484969 4.4980874
0.8863046 1.3098174 0.35629684 -0.28245646 -1.1095395 3.0355508 1.5914235 3.5797143
0.21224305 0.12137224 0.24462049 5.040362 -0.3159351 -0.28417048 0.3263194 1.0529029
-0.47667563 -0.1361639 -0.3309694 1.4593005 0.2123693 -1.8213882 -0.6924497 1.6812103
0.35825697 4.8683867 -0.33348614 1.8830973 -1.2297603 2.4309244 -1.1958929 2.9495504
-1.44295 1.4102635 -0.093892045 -2.2379816 -1.0641704 -1.067536 0.3740174 -0.99130154
-0.30739853 -2.1963239 -0.3253211 -1.5528996 -0.4645874 -0.81252205 -0.3641111 -1.5083574
0.18636353 0.8045345 1.7615696 4.0560174 -1.4678493 -1.0934085 -0.16947009 -1.374263
-1.5841535 1.4391202 0.82222164 -3.4617703 2.246358 0.073757954 -0.5997896 -2.4058378
00000000: 1f14 c6bd 03ad 5b3f c7f5 01bf 7654 e4bf
00000010: 8746 76be 8afa fbbf fde7 b5bf 7bcc 04bf
00000020: 053b abbf 0b6c f83f 463e 8bbe 0251 eabf
00000030: 75e9 6a3f c7a2 6c3f 06ea 3abe 2c79 01c0
00000040: 2476 cb3f 72aa 8b40 9d3b 28bf ce15 f0bf
00000050: e5f6 63bf 9159 8abf 2894 c43e 4407 583f
00000060: 0d05 b13e 8ae5 ddbf a276 d4bf d403 6dbf
00000070: fcb3 a3bf 2f65 07c0 eba3 47bf 14ed 8dbf
00000080: 22c2 443f 566b 513f f791 c13e ec78 99bf
00000090: 29d0 1a40 18c7 c4bf 3e85 503f 7fb9 fa3f
000000a0: 7254 c83e e845 6e3f 1035 8ebf 9a83 64be
000000b0: cf2a d8be e308 bdbf 73f1 113f f0e4 9540
000000c0: 2a81 183e ecc5 abbf 96d4 95bd 75e1 fcbe
000000d0: 1b4f 123f cb62 9340 e08c 1ebf 8d71 e9bf
000000e0: cfd7 d9bd 9ac5 6840 4e08 8ebf e8e7 42bf
000000f0: f679 9a3e f8bf ac40 883e de3f a4e1 7d40
00000100: a44e 42bf 9aaa 84bf 76ad a33e 3a97 a93e
00000110: a5d0 e8bf fe5c d23f a4b4 b9bc cf03 b9c0
00000120: 50c7 393d ef91 583f ad37 f23f 7621 2640
00000130: 4c08 8fbf eee5 54c0 20ec b23e d799 a140
00000140: 9882 ad3e 9492 b4bf 0483 133f 2b6a c6bf
00000150: 25d3 c1bf a71b 9c3f 5e77 9fbf 4c01 8cbf
00000160: b31c ebbe baf1 25c0 4fa8 c33e a46a acbf
00000170: bd21 c83f 633e 8640 2b0f 6f3e 862b ac3f
00000180: 7019 bbbf 9252 3cbf d2ac 9dbf 09e5 24bf
00000190: b20b bf3e c5b6 763f e153 c33e 0ec4 263f
000001a0: 7b2b dc3d bf52 35bf 64f3 7d3f b6ee 113e
000001b0: a09d ea3e 20ac 4340 7bc0 163f 7174 3ac0
000001c0: 0e72 1c3e 190e 8c40 7d1f 7a3e eb30 b2c0
000001d0: dc18 d7be 9414 9740 5495 17bf 4ac9 1e3f
000001e0: 2330 513f 743d 52c0 d30f 1f3d 4401 a340
000001f0: 474d be3f bedb 7840 0744 c7be 3a00 8ebf
00000200: fc0a 39bf 2656 5640 fb4d 583f b6c6 bbbf
00000210: a2c6 0e40 b32e 6d3f d6d5 03bc c875 9d40
00000220: 65a8 f73f 7c2e 7040 2f2d 5e3f 667f 84c0
00000230: b0ae f43e f68c 8dc0 9b15 ba3e 61a6 e8bf
00000240: 3507 f93f a567 5dbf f2af c23e a185 81bf
00000250: 6175 1040 7b2d b2bf ac94 7abf d85c fd3e
00000260: f574 9ebf 3e89 a2c0 0246 c33f f789 5240
00000270: 4572 5a3e 1ded b7c0 57fe 8fbe f30e fbbf
00000280: d89c ed3f 3a86 1740 d84e 1c3e 9e49 7f3e
00000290: 7722 acbe 79c5 033f f5c4 c1bf 4e81 833f
000002a0: 358d b73e 37f5 91bf 9414 babf 8ed1 79bf
000002b0: f8c4 28be b452 94bf b1b8 0b3f d98a 7ac0
000002c0: 991b 953e 647e 74be 232e 5c3f ad74 94c0
000002d0: 0d2e 1ebe 0965 e23e c993 1dbe b241 dabf
000002e0: 6725 88bd c4a8 93bf 456c ce3e 6ea0 2fbe
000002f0: c1b1 8e3f 0e40 5740 8c9b ec3f 55f0 8f40
00000300: dce4 623f 19a8 a73f 8a6c b63e 229e 90be
00000310: 6405 8ebf 7746 4240 c4b3 cb3f 0a1a 6540
00000320: 3e56 593e 0292 f83d cb7d 7a3e a54a a140
00000330: 3fc2 a1be cb7e 91be 5613 a73e 86c5 863f
00000340: d40e f4be 8d6e 0bbe d274 a9be 5cca ba3f
00000350: 5677 593e 4023 e9bf 6244 31bf e631 d73f
00000360: 756d b73e d3c9 9b40 b2be aabe 5509 f13f
00000370: c968 9dbf 4494 1b40 0513 99bf 6fc5 3c40
00000380: 96b2 b8bf 8483 b43f 794a c0bd 173b 0fc0
00000390: bc36 88bf 05a5 88bf 357f bf3e f0c5 7dbf
000003a0: 5763 9dbe 9290 0cc0 7d90 a6be 6ac5 c6bf
000003b0: 66de edbe 7201 50bf c56c babe db11 c1bf
000003c0: 15d6 3e3e f9f5 4d3f 1d7b e13f e5ca 8140
000003d0: 7ce2 bbbf cff4 8bbf 9189 2dbe dae7 afbf
000003e0: 8bc5 cabf 1735 b83f 1e7d 523f a58d 5dc0
000003f0: 54c4 0f40 690e 973d d08b 19bf 3ff9 19c0

base.0.bias f4 [128]
0.20534542 0.22624445 0.3141932 -0.050188076 0.2533512 0.23031199 0.45271093 0.20712887
-0.27594858 0.123658724 0.21311362 0.40075108 0.35727873 -0.035625212 0.028947603 0.12053378
0.38247246 0.3840868 -0.11964737 0.39435458 0.40875036 -0.12059257 0.29007992 0.29818133
0.28546992 0.2896682 0.2982179 0.11817307 0.17192107 0.040187307 0.16512382 -0.10187171
0.16515857 0.32438362 0.00457815 0.005238678 0.2530746 -0.24642241 0.095911205 0.05616794
0.34711346 0.28749985 0.18902506 -0.0023426106 0.22964762 0.39848506 -0.322038 0.25268915
0.13782446 0.13856322 0.39411163 0.3910334 0.22740054 0.46160033 0.23769155 0.29629824
-0.021201773 0.13024923 -0.16510542 -0.016258989 0.40704554 -0.012501288 0.26677373 0.24172822
0.17548148 0.41885304 -0.15527698 0.0015554174 -0.3905878 0.43148243 0.24282873 0.38401395
-0.01704773 0.39328775 -0.109999895 0.22294006 -0.049534194 -0.31032163 0.110412344 0.21800396
-0.46652868 0.2607252 0.19719966 0.11609368 0.36517772 0.0012745364 0.26236373 0.27568135
0.28284448 0.42753756 0.2679457 0.23571797 0.26469454 0.41276374 0.2570936 0.010502892
0.41383103 0.35908976 -0.0437831 0.11792212 0.2814249 0.11130018 0.23883219 0.33911875
0.1789332 0.26103592 0.2868318 0.16769065 0.13934174 0.20740804 0.29966336 0.11436089
0.05007802 0.26093954 0.108269826 0.37776914 0.13602123 0.2546875 0.16260569 0.15168814
0.2764384 -0.33598286 0.22117552 0.19617076 0.033909727 0.40950602 -0.08885915 0.37069142
00000000: 1246 523e a0ac 673e eedd a03e 0392 4dbd
00000010: 40b7 813e e8d6 6b3e bac9 e73e 9719 543e
00000020: 2249 8dbe c940 fd3d 753a 5a3e 3f2f cd3e
00000030: 3ded b63e beeb 11bd 8623 ed3c 6ada f63d
00000040: 6ed3 c33e 06a7 c43e ae09 f5bd d8e8 c93e
00000050: ba47 d13e 3df9 f6bd 5b85 943e 39ab 983e
00000060: 1d29 923e 644f 943e 04b0 983e b904 f23d
00000070: 140c 303e 729b 243d 3816 293e 1da2 d0bd
00000080: 541f 293e 9c15 a63e 4e04 963b 37a9 ab3b
00000090: fe92 813e 2856 7cbe 186d c43d 5b10 663d
000000a0: dbb8 b13e 2e33 933e c98f 413e 7c86 19bb
000000b0: bf28 6b3e 3c06 cc3e 2ae2 a4be 7960 813e
000000c0: db21 0d3e 84e3 0d3e 00c9 c93e 8835 c83e
000000d0: b0db 683e e156 ec3e 6a65 733e 67b4 973e
000000e0: 57af adbc 0e60 053e 6511 29be 9231 85bc
000000f0: 4668 d03e 34d2 4cbc 9196 883e 9a87 773e
00000100: 6bb1 333e e873 d63e ee00 1fbe 26df cb3a
00000110: 20fb c7be 44eb dc3e 18a8 783e 7a9d c43e
00000120: aea7 8bbc 035d c93e a047 e1bd 664a 643e
00000130: 5ee4 4abd 7ae2 9ebe de1f e23d 6e3c 5f3e
00000140: d9dc eebe c67d 853e b5ee 493e 86c2 ed3d
00000150: 93f8 ba3e 580e a73a 8a54 863e 1b26 8d3e
00000160: fed0 903e 34e6 da3e 2e30 893e 0d60 713e
00000170: 0b86 873e c555 d33e c6a1 833e 5214 2c3c
00000180: a9e1 d33e 9dda b73e e855 33bd 2781 f13d
00000190: ed16 903e 59f1 e33d 6d90 743e f9a0 ad3e
000001a0: 443a 373e 80a6 853e 9edb 923e 19b7 2b3e
000001b0: 9aaf 0e3e c662 543e 7a6d 993e 0b36 ea3d
000001c0: 9c1e 4d3d de99 853e 92bc dd3d f56a c13e
000001d0: 2649 0b3e 6666 823e 1b82 263e 2354 1b3e
000001e0: 5589 8d3e f205 acbe d67b 623e fde0 483e
000001f0: ede4 0a3d c6aa d13e c9fb b5bd 44cb bd3e

base.2.weight f4 [128, 128]
-0.02527501 -0.13032037 0.12057423 0.11729187 0.002033087 -0.038784027 -0.20744488 0.0515556
-0.43152153 -0.14829613 -0.25494757 0.33789107 0.3916453 -0.21114242 0.025619263 0.013554332
-0.18576463 0.46255717 0.4330204 -0.37276766 0.24544966 -0.07975684 0.19953461 -0.53990984
0.17183498 0.16585258 -0.47174376 0.02471347 -0.14514636 -0.19071165 -0.75235486 0.030679904
-0.16039696 0.38158527 -0.096729144 -2.055735 0.042637367 -0.20567818 -0.08085133 -0.7070746
0.29691142 -0.11562803 -0.23370537 -0.2238325 0.20268963 0.49389932 -0.14050302 0.48493198
-0.17929465 0.07362264 0.63142407 0.27576318 0.14242832 -0.12134317 -0.657077 -0.28638017
-1.1707172 -1.2906896 0.0054242127 -0.17178474 -0.28071758 -1.4438885 0.018625362 -0.022604229
0.0009643781 -0.14035787 0.119290166 -2.3952496 -0.32415977 -0.115377195 -0.4511993 0.5776748
0.17040733 0.24239035 0.18180211 0.01576316 -0.26653513 -0.076063104 -1.3231032 0.07328037
-0.116825566 0.35604653 0.04760031 0.006846634 0.48219 -0.14541014 0.28451985 -0.5739847
0.29632905 -0.49911952 -0.017295852 0.13590448 0.22401932 0.26445293 -0.2071055 -0.08644266
-0.15920788 0.5986691 0.11422243 -0.07221614 0.41515845 -0.85011536 0.17256865 0.44993392
-0.08227068 -0.14505297 0.47672203 0.12089022 -0.89141 0.09841787 0.05816443 0.05576006
-0.10427295 0.10741474 -0.16924308 0.26592797 0.016177531 -0.1375193 0.17467204 0.121848606
0.32290527 -0.30578545 0.13592254 0.075971074 -0.14017501 -0.30705532 -0.024496177 0.033224292
-0.11719151 -0.13610673 0.22956125 0.027570764 0.05289592 -0.105760634 -0.2979666 0.0051239906
-0.41118264 0.086866066 0.09128155 0.6358908 0.38803142 -0.25011483 -0.13036215 -0.2516077
-0.25520304 0.3747613 0.14536916 -0.33081728 0.2082968 -0.120957084 -0.04050778 -0.51367676
0.44193697 0.32958597 -0.47397867 -0.24242471 -0.12618628 0.15074712 -0.6276743 0.060071997
0.04559654 0.3784357 -0.043138158 -2.1387463 0.28661045 0.21623991 -0.09585408 -0.8458958
0.412472 -0.45771194 -0.16170108 0.10897909 -0.07764264 0.36200657 -0.10822232 0.22582667
-0.036106493 -0.06383378 0.28019634 0.55820084 0.14355244 -0.05374746 -0.47191536 -0.22379483
-0.88856316 -1.1201239 0.011444364 -0.054400183 0.009060921 -1.520459 -0.149575 0.23479195
-0.16035402 -0.39899066 0.097640626 -2.333428 -0.0025668563 -0.14436659 -0.7564022 0.5690913
0.13552818 0.3938399 0.45284772 0.046002258 -0.2342428 0.012897497 -1.1617945 -0.07899271
-0.23472512 0.42490238 -0.012067283 0.100332074 0.40331045 -0.21671158 0.19564943 -0.52838874
0.40502208 -0.4252006 0.267823 0.087527424 0.20742083 0.34440842 -0.104722306 -0.15473484
-0.27452338 0.30997008 0.11429001 -0.07004061 0.15727662 -0.80410206 0.048956398 0.3655915
-0.011207104 0.21271408 0.0886124 -0.027236855 -0.67789537 -0.024205124 -0.20768717 -0.099337146
-0.21993752 0.061165508 0.08344573 0.4598783 0.06434947 0.17223375 0.19424121 0.014768438
0.19538328 -0.41397873 -0.08320817 -0.13334832 -0.066788934 -0.35646728 -0.020438509 -0.12048962
00000000: 8a0d cfbc b472 05be 9fef f63d b836 f03d
00000010: 8a3d 053b 00dc 1ebd 6e6c 54be f72b 533d
00000020: 64f0 dcbe f1da 17be 7d88 82be 0f00 ad3e
00000030: bc85 c83e b835 58be 7ddf d13c fd12 5e3c
00000040: 1539 3ebe 4bd4 ec3e dab4 dd3e 67db bebe
00000050: 2857 7b3e 8e57 a3bd cd52 4c3e 8837 0abf
00000060: 82f5 2f3e 42d5 293e 6688 f1be e773 ca3c
00000070: 3fa1 14be ea49 43be 549a 40bf 6c54 fb3c
00000080: 1a3f 24be 255f c33e ee19 c6bd 2a91 03c0
00000090: 85a4 2e3d 4d9d 52be 6295 a5bd d702 35bf
000000a0: c604 983e 63ce ecbd 7650 6fbe 5934 65be
000000b0: df8d 4f3e 5fe0 fc3e 06e0 0fbe 0149 f83e
000000c0: 0499 37be 77c7 963d 02a5 213f d530 8d3e
000000d0: bbd8 113e c582 f8bd 3336 28bf 6ca0 92be
000000e0: 10da 95bf 5135 a5bf 98bd b13b 57e8 2fbe
000000f0: 37ba 8fbe 57d1 b8bf 3794 983c 812c b9bc
00000100: 52ce 7c3a f9b9 0fbe 674e f43d c54b 19c0
00000110: 45f8 a5be e14a ecbd 9803 e7be 7fe2 133f
00000120: 427f 2e3e 2d35 783e 552a 3a3e be21 813c
00000130: 4b77 88be f9c6 9bbd 725b a9bf 0514 963d
00000140: 3e42 efbd bb4b b63e 8bf8 423d bb59 e03b
00000150: 9ce1 f63e 65e6 14be 96ac 913e a9f0 12bf
00000160: 71b8 973e 988c ffbe 08b0 8dbc 8b2a 0b3e
00000170: 5265 653e 6066 873e 7713 54be d908 b1bd
00000180: 6407 23be 6142 193f 73ed e93d 0ee6 93bd
00000190: a68f d43e 29a1 59bf d6b5 303e bd5d e63e
000001a0: 887d a8bd c488 14be e914 f43e 4b95 f73d
000001b0: 7233 64bf 4f8f c93d d33d 6e3d a964 643d
000001c0: 0e8d d5bd 42fc db3d 0f4e 2dbe b627 883e
000001d0: be86 843c dcd1 0cbe 3add 323e c38b f93d
000001e0: d753 a53e e98f 9cbe 472f 0b3e b996 9b3d
000001f0: 0a8a 0fbe 5b36 9dbe 35ac c8bc 3216 083d
00000200: 1a02 f0bd 905f 0bbe 1b12 6b3e 15dc e13c
00000210: 64a9 583d 0899 d8bd 148f 98be 26e7 a73b
00000220: 8886 d2be d6e6 b13d d2f1 ba3d bdc9 223f
00000230: 0eac c63e 0d0f 80be a87d 05be b9d2 80be
00000240: f9a9 82be b7e0 bf3e a7db 143e e260 a9be
00000250: c24b 553e 59b8 f7bd 7ceb 25bd 5280 03bf
00000260: 9045 e23e 7ebf a83e 55ad f2be 2f3e 78be
00000270: fa36 01be 745d 1a3e 43af 20bf 0e0e 763d
00000280: 70c3 3a3d 53c2 c13e a3b1 30bd 38e1 08c0
00000290: 9bbe 923e ff6d 5d3e 254f c4bd a18c 58bf
000002a0: 882f d33e 3859 eabe f894 25be 6e30 df3d
000002b0: 1b03 9fbd ed58 b93e aaa3 ddbd 1b3f 673e
000002c0: 67e4 13bd 49bb 82bd e575 8f3e 40e6 0e3f
000002d0: 69ff 123e 4c26 5cbd e49e f1be 792a 65be
000002e0: e078 63bf 3860 8fbf 2481 3b3c bad2 5ebd
000002f0: 4274 143c 679e c2bf 302a 19be 4d6d 703e
00000300: d833 24be 8148 ccbe cff7 c73d e256 15c0
00000310: b438 28bb d6d4 13be 93a3 41bf f8af 113f
00000320: e6c7 0a3e 62a5 c93e a8db e73e dd6c 3c3d
00000330: 58dd 6fbe 0650 533c afb5 94bf eec6 a1bd
00000340: c85b 70be ce8c d93e dab5 45bc e77a cd3d
00000350: b57e ce3e a4e9 5dbe 5358 483e 7c44 07bf
00000360: 0e5f cf3e e5b3 d9be 1920 893e 9441 b33d
00000370: 2066 543e 4d56 b03e a678 d6bd cf72 1ebe
00000380: 548e 8cbe 66b4 9e3e e110 ea3d 7471 8fbd
00000390: 1f0d 213e a2d9 4dbf 8186 483d cf2e bb3e
000003a0: 009e 37bc b8d1 593e 6b7a b53d d31f dfbc
000003b0: 8d8a 2dbf d349 c6bc f2ab 54be 4671 cbbd
000003c0: 4d37 61be af88 7a3d 98e5 aa3d 2b75 eb3e
000003d0: a8c9 833d 0b5e 303e 2be7 463e 52f7 713c
000003e0: 8e12 483e 05f5 d3be 0c69 aabd 768c 08be
000003f0: a3c8 88bd e182 b6be a96e a7bc 43c3 f6bd

base.2.bias f4 [128]
0.21682264 0.21462433 0.21725388 -0.014235888 -0.009528384 0.24902907 -0.006307261 0.20599362
0.20277163 -0.030957978 0.0013295247 0.01 -0.0035734463 0.26092324 0.31294805 0.21095926
0.21125661 0.23233275 0.22251733 0.2457884 -0.018557722 0.23527703 0.01 -0.005350941
0.21345815 0.21300565 0.32396135 0.24054079 0.21346202 0.01 0.2197435 0.21636184
0.2058002 0.039532214 -0.003939995 -0.035281416 -0.006239295 0.23953581 -0.02416339 -0.005372833
0.22557808 0.19951326 0.13464876 0.01 0.22708385 -0.042338647 0.21783832 0.01
0.2290668 -0.017735159 0.20325203 0.2303341 0.32512653 -0.03086242 0.20774339 0.20682961
-0.027647596 0.20875332 0.21141514 -0.0031040043 -0.02444305 0.01 0.23143823 -0.04005181
0.01 0.21479227 0.21100895 0.25602782 0.026422216 -0.005041832 0.21729593 -0.023631377
0.2636457 0.22413824 -0.0012352823 0.2302077 0.19937386 0.01 0.22252245 0.1360485
0.23142812 0.24562876 0.029873785 -0.009069431 0.19488192 0.2027882 0.35346147 0.20868014
-0.0016070048 0.24804212 0.22020537 0.20827717 0.19121358 0.34151277 0.21695492 -0.015445925
0.21187097 0.21997753 -0.012968882 0.19387648 -0.022553094 0.20105134 0.23001124 0.01
0.21751796 0.21756807 0.20063539 -0.28832337 0.01 0.2725192 -0.006710295 0.22436179
0.22256143 0.20541124 -0.006041621 0.2195338 0.197676 0.23554777 -0.017097304 0.21337217
0.21781138 0.0016328343 -0.009197945 -0.007872408 0.20676969 0.0019992415 -0.27751806 -0.0047320323
00000000: c106 5e3e 7bc6 5b3e cd77 5e3e a43d 69bc
00000010: f01c 1cbc 7a01 7f3e 24ad cebb feef 523e
00000020: 5ea3 4f3e 969b fdbc 7243 ae3a 0ad7 233c
00000030: 7b30 6abb bb97 853e ba3a a03e b405 583e
00000040: a753 583e a3e8 6d3e 95db 633e f4af 7b3e
00000050: 5d06 98bc 76ec 703e 0ad7 233c f256 afbb
00000060: c694 5a3e 271e 5a3e 43de a53e 5350 763e
00000070: ca95 5a3e 0ad7 233c 7104 613e f58d 5d3e
00000080: 4abd 523e 88ec 213d 131b 81bb 3f83 10bd
00000090: 0073 ccbb e048 753e 4df2 c5bc 970e b0bb
000000a0: f1fd 663e 344d 4c3e 5de1 093e 0ad7 233c
000000b0: ab88 683e 4a6b 2dbd 0211 5f3e 0ad7 233c
000000c0: 7d90 6a3e 5349 91bc 4d21 503e b4dc 6b3e
000000d0: fc76 a63e 30d3 fcbc afba 543e 24cb 533e
000000e0: 367d e2bc 6ec3 553e 367d 583e 8d6c 4bbb
000000f0: cb3c c8bc 0ad7 233c 25fe 6c3e 5e0d 24bd
00000100: 0ad7 233c 81f2 5b3e bb12 583e 1416 833e
00000110: 6773 d83c f435 a5bb d382 5e3e 9796 c1bc
00000120: 92fc 863e 7f84 653e 32e9 a1ba 91bb 6b3e
00000130: a928 4c3e 0ad7 233c eddc 633e 4c50 0b3e
00000140: 7efb 6c3e 1b86 7b3e deb9 f43c f397 14bc
00000150: 208f 473e b6a7 4f3e e7f8 b43e 3fb0 553e
00000160: 22a2 d2ba c1fe 7d3e 847d 613e 9c46 553e
00000170: 7ecd 433e c3da ae3e 6e29 5e3e e810 7dbc
00000180: b4f4 583e ca41 613e 6f7b 54bc 8e87 463e
00000190: 44c1 b8bc 67e0 4d3e 1188 6b3e 0ad7 233c
000001a0: 07bd 5e3e 2aca 5e3e 5d73 4d3e 1f9f 93be
000001b0: 0ad7 233c a387 8b3e 09e2 dbbb 19bf 653e
000001c0: 25e7 633e 5357 523e caf8 c5bb 78cd 603e
000001d0: 946b 4a3e 6f33 713e a50f 8cbc 3c7e 5a3e
000001e0: f209 5f3e d404 d63a fab2 16bc 46fb 00bc
000001f0: 6fbb 533e b505 033b d916 8ebe 2a0f 9bbb

actor_mu.0.weight f4 [1, 128]
0.10094848 0.06642028 0.013746596 -0.07436298 -0.07242639 0.2371116 -0.0022981942 0.07860862
0.09027672 0.044061407 0.061364982 0.05330386 -0.011218036 0.055591967 0.2719321 0.05082695
-0.009729248 0.19040865 0.031453412 0.18846688 0.0143164 0.17239244 -0.030611161 0.07405031
0.068875805 0.035390954 0.24852589 0.25707248 0.04811482 -0.03694089 0.0968472 0.11322225
0.17802444 0.20654972 -0.021925293 -0.039766103 -0.07414805 0.30223835 0.07224922 -0.080489986
0.17569205 0.010346286 0.33175662 -0.04902729 -0.04929575 0.09686917 0.1431584 -0.072987586
0.27949965 0.0023323626 0.1813439 0.17019388 0.21550582 0.009006828 0.1648937 0.013325572
-0.0426519 0.08954469 0.15445825 -0.022733212 0.022265026 0.035173282 0.13328104 -0.057778947
-0.017480291 0.04173782 -0.03037307 0.28861985 0.14978833 0.059727207 0.16851215 0.008936541
0.090598464 -0.023647811 -0.08210132 0.30742964 0.13414277 -0.027456596 0.14665562 -0.028428795
0.1953837 0.15318641 0.12829788 0.0055574114 0.14006406 0.22422776 0.26816756 0.1236937
-0.03867952 0.15880053 0.14428745 0.15253055 0.1282897 0.283514 -0.007739008 -0.08617758
0.18040587 0.21234791 0.02612645 0.20335576 0.03218648 0.23652212 0.086166054 -0.010544911
0.021701531 0.1269692 0.159501 0.18201211 -0.068057686 0.22313559 -0.061827 0.12032248
0.085703425 0.08857228 -0.06404388 0.10902782 0.11400616 0.07520441 -0.045527436 0.14475457
0.022932084 0.031974256 0.07737589 0.05214097 0.115695685 -0.054326244 0.08038842 -0.043118086
00000000: 14be ce3d 5b07 883d 6739 613c 9e4b 98bd
00000010: 4a54 94bd 62cd 723e 4d9d 16bb 8efd a03d
00000020: 00e3 b83d bc79 343d d959 7b3d 2655 5a3d
00000030: dacb 37bc 67b4 633d af3a 8b3e ec2f 503d
00000040: 6c67 1fbc 7cfa 423e 4bd5 003d 76fd 403e
00000050: 558f 6a3c a587 303e 42c4 fabc b0a7 973d
00000060: c20e 8d3d 1bf6 103d 927d 7e3e 019f 833e
00000070: 0c14 453d 554f 17bd d357 c63d 11e1 e73d
00000080: 0a4c 363e c581 533e ac9c b3bc c8e1 22bd
00000090: efda 97bd fcbe 9a3e 66f7 933d efd7 a4bd
000000a0: 9ee8 333e 7883 293c 01dc a93e d7d0 48bd
000000b0: 57ea 49bd 5863 c63d 1e98 123e 847a 95bd
000000c0: 941a 8f3e 8dda 183b 37b2 393e 4e47 2e3e
000000d0: 8fad 5c3e 6091 133c e5d9 283e 8053 5a3c
000000e0: c2b3 2ebd 3563 b73d 4e2a 1e3e 003b babc
000000f0: 2565 b63c dc11 103d d37a 083e 9ea9 6cbd
00000100: d432 8fbc 47f5 2a3d f2d0 f8bc fbc5 933e
00000110: 1d62 193e 84a4 743d 738e 2c3e 926a 123c
00000120: b08b b93d 0eb9 c1bc bd24 a8bd 6b67 9d3e
00000130: b95c 093e a8ec e0bc e42c 163e 81e3 e8bc
00000140: aa12 483e e6dc 1c3e 8560 033e f21a b63b
00000150: f46c 0f3e f69b 653e 424d 893e 1f53 fd3d
00000160: 6b6e 1ebd 9b9c 223e 17c0 133e f830 1c3e
00000170: 605e 033e bf28 913e 8197 fdbb df7d b0bd
00000180: 51bc 383e bb71 593e 2307 d63c 7e3c 503e
00000190: f8d5 033d db32 723e d477 b03d 90c4 2cbc
000001a0: 69c7 b13c 3704 023e 3b54 233e 6261 3a3e
000001b0: d461 8bbd a87d 643e 4f3e 7dbd a26b f63d
000001c0: 4785 af3d 6265 b53d 7029 83bd fa49 df3d
000001d0: 107c e93d c504 9a3d fa7a 3abd 8b3a 143e
000001e0: 11dc bb3c 70f7 023d 4077 9e3d c591 553d
000001f0: dcf1 ec3d 3285 5ebd afa2 a43d 979c 30bd

actor_sigma.0.weight f4 [1, 128]
0.473662 0.2545832 0.49487853 -0.04587693 -0.0061564017 0.805324 -0.07197309 0.47769073
0.35183004 0.024812695 0.092919245 0.0012291074 -0.021625785 0.17080604 -0.24449211 0.36469623
0.38619912 0.61428 0.5608244 0.7291795 -0.008059746 0.6657719 -0.014039464 -0.010321827
0.6004803 0.4109908 -0.22699688 0.49657562 0.32227907 0.079003595 0.29178405 0.4004297
0.29144025 -0.21905352 -0.06153406 -0.0554607 -0.038664024 -0.31674314 -0.0069795647 -0.014835437
0.5525155 0.46508917 -0.9957167 -0.007905208 0.57609016 -0.15645136 -0.06311831 -0.030938968
0.52078795 -0.014851438 0.36545724 0.5563378 -0.24242294 0.073292844 0.2516131 0.57616
0.050489236 0.3508006 0.41730464 -0.07632087 0.008931551 0.017337188 0.58840823 0.033085674
-0.042319197 0.49553597 0.5132434 0.75923103 -0.111973904 0.027715553 0.6254351 -0.026178762
0.6332045 0.69931406 -0.005552997 0.60194147 0.27964315 -0.006252423 0.5108375 -0.48217154
0.70740926 0.4522492 0.08754522 -0.006438433 0.5985502 -0.044797696 0.47266227 0.17645808
-0.03845544 0.5441473 0.39592662 -0.07776229 0.008193062 0.40991113 0.5001139 0.09103694
0.3026304 0.38712162 0.044486675 0.21797179 -0.009166881 0.1156753 0.6792845 0.0014314577
0.6705167 0.3461308 0.44772127 -0.8950536 0.07632483 0.7332932 0.0943263 0.44888932
0.53780067 0.175734 -0.033252142 0.29938462 0.08408759 0.61322147 0.011997842 0.5438769
0.6782203 -0.075371936 -0.06848547 0.029967641 0.32481262 -0.055273686 -1.0417191 -0.06544101
00000000: d383 f23e bb58 823e b860 fd3e 73e9 3bbd
00000010: a4bb c9bb b729 4e3f a166 93bd e193 f43e
00000020: 1123 b43e fe43 cb3c 724c be3d 001a a13a
00000030: 8f28 b1bc c7e7 2e3e 245c 7abe 77b9 ba3e
00000040: e4bb c53e 7441 1d3f 3092 0f3f 82ab 3a3f
00000050: 060d 04bc 0770 2a3f c805 66bc e11c 29bc
00000060: 14b9 193f 636d d23e df71 68be 293f fe3e
00000070: c301 a53e a3cc a13d b864 953e 1f05 cd3e
00000080: a837 953e 914f 60be 230b 7cbd c22a 63bd
00000090: 2b5e 1ebd 282c a2be d5b4 e4bb 5510 73bc
000000a0: a871 0d3f 2b20 ee3e 4ae7 7ebf d884 01bc
000000b0: a57a 133f c934 20be 2c44 81bd b873 fdbc
000000c0: 5c52 053f 7253 73bc 361d bb3e 276c 0e3f
000000d0: b83d 78be 8f1a 963d 6fd3 803e 397f 133f
000000e0: cdcd 4e3d 239c b33e f4a8 d53e 1e4e 9cbd
000000f0: a455 123c b806 8e3c eca1 163f d884 073d
00000100: e556 2dbd e4b6 fd3e eb63 033f f75c 423f
00000110: 9352 e5bd ba0b e33c 841c 203f d874 d6bc
00000120: b119 223f 3f06 333f eaf5 b5bb d618 1a3f
00000130: 632d 8f3e 20e1 ccbb 3fc6 023f 30df f6be
00000140: c618 353f 358d e73e e94a b33d 7ef9 d2bb
00000150: 963a 193f ca7d 37bd ca00 f23e 6db1 343e
00000160: 7483 1dbd 3d4d 0b3f e5b6 ca3e d641 9fbd
00000170: 313c 063c dfdf d13e 7707 003f 9371 ba3d
00000180: 5ff2 9a3e ce34 c63e a937 363d ff33 5f3e
00000190: b030 16bc 2ce7 ec3d 97e5 2d3f c09f bb3a
000001a0: fca6 2b3f 0e38 b13e b93b e53e 3c22 65bf
000001b0: 3150 9c3d 1ab9 3b3f 262e c13d d2d4 e53e
000001c0: 4ead 093f 9df3 333e 6633 08bd f148 993e
000001d0: 1d36 ac3d 15fc 1c3f 9992 443c 843b 0b3f
000001e0: d89f 2d3f 9a5c 9abd 1c42 8cbd b37e f53c
000001f0: d74d a63e a966 62bd 0d57 85bf f005 86bd

critic.0.weight f4 [1, 128]
-0.6846998 -0.7511709 -0.5935048 0.043367233 0.0135847675 -1.0288527 0.0037238137 -0.6867174
-0.66385406 0.015629735 0.08030351 0.058438785 0.023067724 -0.7798187 0.8002602 -0.6361681
-0.6160036 -0.9362467 -0.78587675 -0.8605842 0.009303548 -0.96552426 -0.053549815 0.011919173
-0.66610056 -0.60188097 0.7583017 -0.8703181 -0.72296333 0.07612426 -0.6650818 -0.709238
-0.6614997 0.25168154 0.070934676 0.03816448 0.013931973 0.7610171 0.027880948 0.060294915
-0.7848505 -0.59411585 0.45889464 -0.06526845 -0.6946522 0.5500499 -0.47881755 0.010963351
-0.90147537 0.025132326 -0.5106922 -0.61881846 0.75664437 0.04623355 -0.5086021 -0.66434735
-0.021043874 -0.6209006 -0.6998111 -0.020322833 0.05371712 -0.026221968 -0.8923053 0.0066673616
-0.07634736 -0.59613997 -0.56748194 -0.8513727 0.603181 0.04298824 -0.85089993 -0.005833543
-0.7083467 -0.76026 0.022161026 -0.8863548 -0.5891879 0.054569565 -0.6894947 0.09331856
-0.9804869 -0.8333761 0.8679943 0.016240656 -0.8136696 -0.503603 -1.3116837 -0.4677261
-0.00063241104 -0.8719887 -0.80939156 -0.4779713 -0.4226011 -1.2234092 -0.49353525 0.060103934
-0.45554677 -0.5170045 0.023951871 -0.49757463 0.03165819 -0.46843895 -0.8040184 0.03425076
-0.803267 -0.6652138 -0.5636533 1.3887901 0.06624111 -1.0675769 0.038867082 -0.8883712
-0.820305 -0.46819064 0.0510177 -0.6573593 -0.4993113 -0.86705106 0.01126567 -0.7246938
-0.7257256 -0.0033731128 0.07260773 0.011335484 -0.58784086 0.014144648 1.5607089 0.0120725455
00000000: 7c48 2fbf bc4c 40bf eeef 17bf d7a1 313d
00000010: a592 5e3c 72b1 83bf 3a0b 743b b6cc 2fbf
00000020: 57f2 29bf ee09 803c 2b76 a43d 825d 6f3d
00000030: 86f8 bc3c 33a2 47bf dadd 4c3f eadb 22bf
00000040: 69b2 1dbf ddad 6fbf 382f 49bf 3f4f 5cbf
00000050: e96d 183c 992c 77bf 0d57 5bbd a348 433c
00000060: 9185 2abf df14 1abf 0f20 423f 2bcd 5ebf
00000070: 2014 39bf 09e7 9b3d cd42 2abf 9f90 35bf
00000080: 0b58 29bf 67dc 803e 3346 913d 5c52 1c3d
00000090: ee42 643c 04d2 423f 9666 e43c cdf7 763d
000000a0: f6eb 48bf fa17 18bf 3df4 ea3e 77ab 85bd
000000b0: bad4 31bf 12d0 0c3f 9327 f5be a09f 333c
000000c0: 17c7 66bf 4fe2 cd3c b9bc 02bf e36a 1ebf
000000d0: 72b3 413f 645f 3d3d bf33 02bf ab12 2abf
000000e0: 3464 acbc 57f3 1ebf d226 33bf 127c a6bc
000000f0: 7c06 5c3d 74cf d6bc 1f6e 64bf e279 da3b
00000100: 015c 9cbd a19c 18bf 7f46 11bf 90f3 59bf
00000110: 126a 1a3f 7014 303d 94d4 59bf 4e27 bfbb
00000120: 3656 35bf 66a0 42bf 0a8b b53c 26e8 62bf
00000130: 05d5 16bf 5684 5f3d ba82 30bf cd1d bf3d
00000140: 3101 7bbf 2358 55bf e034 5e3f 200b 853c
00000150: a74c 50bf 20ec 00bf 40e5 a7bf cc79 efbe
00000160: 63c8 25ba a73a 5fbf 4934 4fbf a7b8 f4be
00000170: 2c5f d8be ac98 9cbf a7b0 fcbe 8b2f 763d
00000180: 6d3d e9be 685a 04bf b736 c43c 1ac2 febe
00000190: 05ac 013d 3bd7 efbe 26d4 4dbf 864a 0c3d
000001a0: e8a2 4dbf 744b 2abf 954b 10bf e0c3 b13f
000001b0: 6ba9 873d 5ca6 88bf 1733 1f3d 4c6c 63bf
000001c0: 82ff 51bf afb6 efbe f0f7 503d b348 28bf
000001d0: bba5 ffbe 0ff7 5dbf a593 383c 8885 39bf
000001e0: 27c9 39bf 710f 5dbb 5db3 943d 77b8 393c
000001f0: bd7c 16bf f4be 673c 4fc5 c73f edcb 453c
