policy_4739.pt (torch_old, 70882 bytes, 7 tensors)

base.0.weight f4 [128, 2]
000000 30 cf b9 bd a7 4c 56 3f 5f a0 00 bf c9 6b 01 c0
       -0.09072721 0.8371071 -0.50244707 -2.0222037
000010 b2 1e 79 be c9 a1 0a c0 9f a1 b6 bf 30 e3 25 bf
       -0.24328116 -2.1661246 -1.4268073 -0.64799786
000020 26 5b ab bf bc a1 f4 3f 72 db 88 be 86 06 f6 bf
       -1.3387191 1.9111857 -0.26729923 -1.9220741
000030 3d 3a 67 3f 1c e9 6b 3f 49 35 35 be ad c5 06 c0
       0.9032324 0.9215257 -0.17696108 -2.1058152
000040 bd 67 c8 3f cd 2f 9b 40 fd 13 2a bf 35 21 09 c0
       1.5656658 4.849585 -0.6643675 -2.1426518
000050 93 6c 65 bf ec 22 93 bf 46 83 c7 3e c1 0c 4a 3f
       -0.89618796 -1.1495032 0.3896734 0.7892571
000060 4e ba b3 3e 1b dd e3 bf 43 7d d5 bf 40 71 86 bf
       0.35103077 -1.7801851 -1.6678852 -1.0503311
000070 9a 4a a4 bf f8 41 13 c0 c9 b1 49 bf 95 bd 99 bf
       -1.2835267 -2.3009014 -0.78786904 -1.2010981
000080 e1 1d 43 3f f1 7b 53 3f 5c c7 c4 3e 21 3a a1 bf
       0.76217467 0.82610995 0.3843335 -1.2595865
000090 88 1e 1c 40 8c c1 f1 bf 80 fc 4a 3f a7 8c fd 3f
       2.4393635 -1.8887191 0.79291534 1.9808549
0000a0 ef c1 ca 3e 03 08 68 3f ab c6 8e bf ee be 71 be
       0.39601085 0.90637225 -1.1154379 -0.2360799
0000b0 50 98 dc be 21 5d bf bf 77 f4 0f 3f 69 1f 96 40
       -0.43084955 -1.4950296 0.562324 4.6913342
0000c0 a8 91 1e 3e cd ed b5 bf 52 44 88 bd 2e 61 08 bf
       0.15485251 -1.4213196 -0.06653656 -0.53273284
0000d0 09 91 10 3f e2 8e 93 40 6a 54 22 bf c0 13 f9 bf
       0.56471306 4.6111917 -0.63410056 -1.9459152
0000e0 2c 80 dc bd 5f e3 70 40 2d 3d 8f bf 30 85 43 bf
       -0.10766634 3.7638776 -1.1190544 -0.76375103
0000f0 2d f9 8f 3e 41 5e af 40 cb c9 d3 3f 04 9d 8a 40
       0.28119794 5.4802556 1.6545957 4.331667
000100 ea 90 44 bf af b3 85 bf 1c 74 a6 3e 07 79 91 3e
       -0.7678362 -1.044546 0.3251046 0.2841265
000110 17 a2 e9 bf 73 26 d7 3f a0 ad e2 bc d5 0a bd c0
       -1.8252591 1.6808609 -0.027670681 -5.9075723
000120 02 3c 50 3d d0 bf 4e 3f cc 20 d2 3f 38 9e 22 40
       0.050838478 0.8076143 1.6416259 2.540907
000130 29 b1 8f bf 25 5b 61 c0 76 e7 ac 3e a7 d6 a6 40
       -1.122594 -3.521188 0.3377034 5.2137027
000140 44 88 b0 3e 67 4e bb bf 90 66 13 3f 6d 9a c1 bf
       0.34478962 -1.4633301 0.5757837 -1.5125252
000150 b5 90 c2 bf 54 53 9e 3f 91 9c a0 bf 95 40 95 bf
       -1.5200411 1.236918 -1.254778 -1.1660334
000160 67 d5 eb be cc 64 31 c0 7e 1b c6 3e f2 57 b2 bf
       -0.4606125 -2.7717772 0.3869285 -1.3933089
000170 55 fa c7 3f df f1 96 40 b6 9c 74 3e fb 04 a8 3f
       1.562327 4.7170253 0.23887905 1.312652
000180 1d 9b bb bf 4b f0 55 bf a1 7b 9e bf 45 2a 4c bf
       -1.4656712 -0.8356978 -1.2381479 -0.79752
000190 1a 0f c2 3e ca b2 69 3f da 39 c6 3e b5 92 1b 3f
       0.37902147 0.91288435 0.38716012 0.6077073
0001a0 34 44 ea 3d 5f 76 47 bf 01 a2 72 3f 2d d6 29 3e
       0.1143879 -0.77914995 0.9477845 0.16585608
0001b0 15 a4 eb 3e 38 7c 43 40 a2 05 15 3f c4 07 3c c0
       0.46023622 3.0544567 0.5821172 -2.937974
0001c0 ba fa e8 3d 2b ed 91 40 32 f6 5d 3e 02 4d b6 c0
       0.11375947 4.560201 0.21675947 -5.6969004
0001d0 85 9c d5 be 5d 0d 9b 40 dd c6 19 bf 9b e2 46 3f
       -0.41720977 4.8453813 -0.60069066 0.7768952
0001e0 bd 2b 4d 3f 11 fa 4e c0 a5 57 2b 3d e1 3e a7 40
       0.80144864 -3.2340128 0.04183163 5.2264256
0001f0 4d 67 bd 3f 50 30 80 40 3f 63 c6 be 01 2d 9c bf
       1.479715 4.0058975 -0.38747594 -1.2201234
000200 35 48 35 bf f3 71 5c 40 4d ee 55 3f 9f d5 b9 bf
       -0.70813304 3.444455 0.83566743 -1.4518317
000210 8c b7 0e 40 87 4a 08 3f a6 42 54 bd 6d 5c a1 40
       2.2299528 0.5323872 -0.051821373 5.0425324
000220 32 c9 f1 3f b7 37 83 40 40 98 58 3f 0a a3 83 c0
       1.8889525 4.100551 0.84607315 -4.113652
000230 29 84 ed 3e 26 75 91 c0 3a 5c bd 3e c1 9b f0 bf
       0.46389893 -4.5455503 0.36984426 -1.8797532
000240 67 de fa 3f 17 4e 8e bf 47 79 c5 3e 2f 2f 89 bf
       1.9599122 -1.1117581 0.3856909 -1.0717524
000250 c1 a2 11 40 ee aa df bf 72 1f 7a bf 5b b7 03 3f
       2.2755587 -1.7474039 -0.9770423 0.51451653
000260 b1 13 9f bf 9f 05 ae c0 73 87 bd 3f 2b a6 69 40
       -1.2427884 -5.438186 1.4806961 3.650767
000270 9e 43 41 3e 04 a5 bc c0 10 c8 8f be e9 63 f9 bf
       0.1887345 -5.8951435 -0.28082323 -1.9483615
000280 58 8a e0 3f f1 f5 14 40 06 36 21 3e 03 d8 4c 3e
       1.7542219 2.327511 0.15743265 0.20004277
000290 b7 04 aa be dd 41 03 3f c2 b2 c2 bf 8f 71 8c 3f
       -0.33206722 0.51272374 -1.5210803 1.0972155
0002a0 5c c8 ba 3e 71 4c 98 bf 63 6c ba bf f9 6e 8e bf
       0.36480987 -1.1898328 -1.4564327 -1.1127616
0002b0 c7 1a 24 be 26 a3 9f bf 2b a9 08 3f ff ab 80 c0
       -0.1602584 -1.2471664 0.5338313 -4.0209956
0002c0 ca 03 98 3e 72 f7 94 be 45 0c 57 3f fe 2d 95 c0
       0.2969039 -0.29095036 0.84003097 -4.6618643
0002d0 67 a1 1b be 9c e8 d8 3e 0a 3d 1a be 14 aa e1 bf
       -0.15198289 0.42364967 -0.15062347 -1.7630029
0002e0 ac 9c 76 bd 0c 6b 9a bf 07 03 d1 3e 45 85 53 be
       -0.060208008 -1.2063918 0.40822622 -0.20656307
0002f0 4b 19 93 3f 63 2f 5b 40 99 b8 e0 3f 5e 06 9b 40
       1.1492094 3.4247673 1.7556335 4.8445272
000300 2f a5 59 3f 20 4c a9 3f 8e 25 b9 3e 0f 66 a6 be
       0.85017675 1.3226357 0.36161464 -0.3249974
000310 98 78 8e bf 61 6c 43 40 f8 19 bd 3f 7f b7 76 40
       -1.1130552 3.05349 1.477355 3.8549497
000320 4e 82 5d 3e 08 02 ba 3d c8 b1 43 3e 88 7e a4 40
       0.21631739 0.09082419 0.19110787 5.1404457
000330 0a c7 9e be ac a7 9c be 1f b2 a9 3e 64 bf 82 3f
       -0.3101123 -0.30596673 0.33143708 1.0214658
000340 44 d4 0b bf ac 0d 04 3f a2 f6 a6 be f2 8c a2 3f
       -0.54620767 0.5158336 -0.3261004 1.2699263
000350 5d 76 60 3e 4a 64 f1 bf 0f 60 35 bf 92 e6 e9 3f
       0.21920152 -1.8858731 -0.708497 1.827349
000360 8c 4a 91 3e fd 37 9e 40 99 7a ab be 9a 2f 01 40
       0.28377187 4.9443345 -0.33491972 2.0185304
000370 74 94 9b bf 01 6e 18 40 24 89 99 bf 47 55 3e 40
       -1.2154679 2.381714 -1.1994977 2.973955
000380 3c b8 b8 bf 5c db ae 3f 48 ed b2 bd f9 2f 15 c0
       -1.4431224 1.3660693 -0.08736664 -2.331053
000390 c2 15 89 bf be 07 92 bf 32 97 c2 3e 28 08 85 bf
       -1.0709765 -1.1408613 0.38005978 -1.0393114
0003a0 94 5c a2 be ba 0b 12 c0 95 bd a4 be 64 4c d3 bf
       -0.31711257 -2.2819657 -0.3217589 -1.6507688
0003b0 2d 75 fd be 13 05 4d bf 87 b3 c8 be 36 e6 9f bf
       -0.4950346 -0.8008587 -0.39199468 -1.249213
0003c0 11 b9 42 3e b4 78 46 3f a4 15 df 3f ce ef 90 40
       0.1901591 0.7752793 1.7428479 4.529273
0003d0 fc ba bc bf 82 1d 98 bf 2f 6b 27 be 46 02 ba bf
       -1.4744563 -1.1884005 -0.16349481 -1.4531944
0003e0 8b 81 cb bf 95 34 b9 3f 0b c9 4e 3f 9e 08 5a c0
       -1.5898908 1.4469172 0.8077552 -3.406776
0003f0 fb f2 0f 40 d1 f0 7c be 02 ae 24 bf 37 74 1d c0
       2.2492054 -0.24701239 -0.64328015 -2.4602182

base.0.bias f4 [128]
000000 76 3b 66 3e a2 09 69 3e d2 35 cb 3e 23 d0 a8 bd
       0.2248362 0.22757581 0.396895 -0.08242824
000010 b2 85 80 3e 8b a5 80 3e b0 f5 f7 3e 0d d3 65 3e
       0.25102 0.251263 0.48429632 0.2244379
000020 21 c4 4c be 83 d8 be 3d 4a 0a 58 3e 7b 2e d5 3e
       -0.19996692 0.0931864 0.21097675 0.41637024
000030 ea 08 bf 3e 9f 3d 85 bd 7d 57 42 3c 89 df d9 3d
       0.37311488 -0.06505894 0.011861679 0.10638339
000040 7e 03 d2 3e 4d a0 cc 3e 5d 7c e2 bd a2 75 db 3e
       0.4101829 0.3996605 -0.11058877 0.42863184
000050 fb b4 d9 3e 3f 9b 27 be 13 e6 a7 3e 1a 07 a5 3e
       0.4252089 -0.16367815 0.3279272 0.3223198
000060 dc 66 9a 3e ba 36 9e 3e 20 ec a4 3e 89 7a c2 3d
       0.301566 0.30901128 0.322114 0.09496028
000070 c7 52 50 3e b0 cc d4 3c 14 c3 36 3e 03 32 cb bd
       0.20344077 0.025976509 0.17847854 -0.09921648
000080 2a 57 17 3e 11 87 ae 3e 1d 7c a8 bc 3d a0 f6 3c
       0.14779344 0.34087422 -0.020566994 0.030105704
000090 ac 4a 89 3e ab 53 b9 be a1 16 b5 3d 72 ab 68 bc
       0.26814783 -0.36196646 0.08842207 -0.014201032
0000a0 17 d1 b9 3e d9 5b 9f 3e 9a b0 39 3e 77 19 c8 bc
       0.36292335 0.31124762 0.18133774 -0.024426205
0000b0 c5 16 7b 3e 8d 89 d4 3e f9 6c 69 be cf ce 89 3e
       0.24520405 0.41511193 -0.22795476 0.26915595
0000c0 27 57 f8 3d 6e a4 fb 3d 9b c5 d1 3e 09 40 d0 3e
       0.12125998 0.12287222 0.40971074 0.40673855
0000d0 c8 d2 79 3e 60 b0 01 3f 39 e2 84 3e b9 93 a4 3e
       0.24396813 0.5065975 0.25953844 0.32143953
0000e0 c7 c2 62 bd ac 8d 1a 3e a0 ef 6f be 89 d0 43 bd
       -0.055361535 0.15093106 -0.23431253 -0.047806296
0000f0 0f 1a e0 3e b9 51 82 bd 17 00 91 3e ba 9a 86 3e
       0.4376988 -0.063632436 0.2832038 0.26289922
000100 c1 0b 32 3e 0f 29 e5 3e e9 a7 0e be a7 e8 b7 3a
       0.17387296 0.44757888 -0.1393124 0.0014031128
000110 06 6f be be 69 a1 ed 3e ba 4b 89 3e fa d9 cc 3e
       -0.3719408 0.4641221 0.26815587 0.40010053
000120 2a 8f 0f bc 16 82 d1 3e cd d4 cf bd cd b9 63 3e
       -0.00876216 0.4091956 -0.101480104 0.22238846
000130 c9 3b 8b bd 66 b1 8f be 1e 4d f1 3d 45 7a 72 3e
       -0.067985125 -0.28065032 0.11782287 0.23679455
000140 f1 32 0a bf 77 db 8d 3e 4b ac 56 3e c1 b3 bd 3d
       -0.5398398 0.277065 0.20964162 0.09262801
000150 bc f5 c2 3e 7f 85 c9 bc eb dd 8e 3e 65 3a 9a 3e
       0.38078105 -0.024599789 0.27903685 0.30122676
000160 4f ac 98 3e 04 b8 ea 3e 0e 43 92 3e 44 de 80 3e
       0.2981896 0.45843518 0.28566784 0.25169575
000170 75 af 8f 3e 9e aa db 3e fd b5 88 3e 7f 24 64 3d
       0.2806355 0.42903608 0.26701346 0.055698868
000180 e3 0c e9 3e a5 d4 bf 3e df 9e c2 bd ff e8 29 3e
       0.45517644 0.37466922 -0.095029585 0.16592787
000190 e8 c7 98 3e fe a3 03 3e c1 e0 83 3e b3 e3 b5 3e
       0.29840016 0.12855527 0.2575741 0.35525283
0001a0 3c f6 75 3e 55 46 90 3e 7d e7 9a 3e d3 ae 3e 3e
       0.24019712 0.2817866 0.30254737 0.18621378
0001b0 a4 28 2d 3e 33 f6 66 3e 8e 46 98 3e 10 91 cf 3d
       0.16910034 0.22554855 0.2974133 0.1013509
0001c0 f5 26 f7 3c 3f ed 90 3e 98 50 bd 3d 5d 76 c9 3e
       0.030169943 0.28306004 0.09243888 0.39348117
0001d0 5c 38 10 3e 87 56 91 3e 7c 4e 6d 3e 9a b0 33 3e
       0.14084 0.28386328 0.2317447 0.17547837
0001e0 d0 9e 96 3e 5e bc 87 be 43 29 55 3e 18 fb 55 3e
       0.2941804 -0.265109 0.20816521 0.20896566
0001f0 73 77 4c 3c 0a a2 e1 3e 9e 40 66 bd 12 9e f2 3e
       0.012479651 0.44068938 -0.056213968 0.47386223

base.2.weight f4 [128, 128]
000000 a8 53 81 bc 17 b3 ff bd fc db 04 3e d9 8e ec 3d
       -0.01578696 -0.124853306 0.12974542 0.115506835
000010 23 5e ec 3b 2e 00 00 bd fc 96 82 be 8f 64 74 3d
       0.0072133704 -0.03125017 -0.25505817 0.059666213
000020 89 5f 04 bf fa ca 15 be b4 1c 80 be 76 16 b6 3e
       -0.51708275 -0.1462821 -0.250219 0.3556401
000030 b6 a3 d1 3e 03 39 59 be 93 9b cb 3c b9 2c 89 3c
       0.40945214 -0.21213154 0.024854457 0.016744958
000040 11 6e 6e be 92 0f f6 3e 36 01 fd 3e b4 45 d5 be
       -0.23284175 0.48058754 0.49414986 -0.41654742
000050 42 c1 86 3e 9d 84 b8 bd fb b8 53 3e 24 54 11 bf
       0.2631932 -0.09009669 0.20676033 -0.56769013
000060 9c 5c 3e 3e 97 72 34 3e c2 eb ff be 50 a6 dd 3c
       0.18590015 0.17621838 -0.49984556 0.027056843
000070 6a 1b 0b be 80 b0 41 be 0d fa 45 bf 49 4b 37 b9
       -0.13584676 -0.18914986 -0.7733467 -0.00017480286
000080 33 c6 1f be f0 7f cc 3e 50 30 c1 bd c7 c4 0a c0
       -0.15602951 0.3994136 -0.09433043 -2.1682603
000090 1f 36 60 3d 21 49 48 be e1 3a a8 bd 0d 1d 53 bf
       0.054739114 -0.19559146 -0.08214355 -0.824662
0000a0 0a 2a a1 3e fb 61 2c be be 52 6a be e8 88 65 be
       0.31477386 -0.16834252 -0.22883126 -0.22415507
0000b0 49 a0 55 3e b1 fe 02 3f 54 ae 5b be f7 7a 00 3f
       0.20861925 0.5116988 -0.2145322 0.5018763
0000c0 a4 ae 34 be 1c 55 9d 3d 5f 28 26 3f 27 5b 96 3e
       -0.17644745 0.07682249 0.6490535 0.2936642
0000d0 53 bb 1f 3e c5 bf 2f be f6 20 30 bf 2c 0c ae be
       0.15598802 -0.17162998 -0.68800294 -0.3399366
0000e0 aa 16 bd bf e4 59 ad bf a9 59 30 be a8 ab 2f be
       -1.4772542 -1.3543057 -0.17221703 -0.17155325
0000f0 07 4f ab be cc dc d0 bf 47 38 42 bc 8a c5 81 bc
       -0.3345873 -1.6317382 -0.011854238 -0.015841264
000100 16 15 d4 3b ab 91 45 be cf a2 1e 3e aa d6 1e c0
       0.00647224 -0.19293849 0.15491794 -2.481852
000110 15 f7 a2 be c0 c4 2d be 1f d0 01 bf 25 69 18 3f
       -0.31829134 -0.16969585 -0.5070819 0.5953544
000120 38 28 5c 3e f3 3f 85 3e 29 1e 78 3e cf 05 aa 3c
       0.21499717 0.26025352 0.24230255 0.020754723
000130 14 9b 8e be 22 42 b0 bd cc 79 b2 bf aa df a4 3d
       -0.2785269 -0.08606364 -1.394342 0.08050473
000140 f5 63 fa bd bc ab bd 3e 4f 9c 5d 3d ae b1 32 3c
       -0.122260965 0.37045085 0.054104146 0.01090662
000150 f4 09 00 3f fe cc 14 be ea 48 96 3e d1 f4 20 bf
       0.5001519 -0.14531323 0.29352504 -0.6287356
000160 28 01 a1 3e 63 c7 0d bf 32 c7 03 bc 02 31 14 3e
       0.31446195 -0.55382365 -0.008043097 0.1447182
000170 bb e4 6f 3e fc 99 90 3e e4 bc 6f be 09 00 ee bd
       0.23427097 0.2824248 -0.234119 -0.116211005
000180 0b de 52 be b0 de 1d 3f ea ff e7 3d 90 13 d4 bd
       -0.20592515 0.6166792 0.113281086 -0.10355294
000190 80 96 dc 3e b6 d1 5f bf d8 3c 38 3e c4 63 ef 3e
       0.43083572 -0.8742937 0.1799196 0.46755803
0001a0 68 f6 9a bd eb bf 0c be 9b 15 fc 3e 9d 54 01 3e
       -0.075665295 -0.13745086 0.49235234 0.12629934
0001b0 66 47 68 bf a7 96 d7 3d 4a 78 81 3d 04 c2 7d 3d
       -0.90733945 0.105267815 0.063217714 0.061952606
0001c0 2b 34 ce bd 61 2d f0 3d 71 de 2a be 6c 67 91 3e
       -0.10068544 0.11727405 -0.16686417 0.28399217
0001d0 b4 20 ad 3c bb 29 05 be 4b 84 38 3e 61 20 02 3e
       0.021133758 -0.130042 0.18019216 0.12707664
0001e0 b1 0a ad 3e 3f 94 b2 be db f0 0e 3e 39 2f ac 3d
       0.3379722 -0.34878728 0.13959067 0.084074445
0001f0 21 53 0c be 49 e0 b8 be b9 b6 92 3c 5f 3e 26 3d
       -0.13703586 -0.36108616 0.017909395 0.040586825
000200 1b 4a db bd ee 57 05 be ae 1e 76 3e b8 be cf 3c
       -0.10707494 -0.13021824 0.24035141 0.025359496
000210 84 35 66 3d fa 7d c6 bd 9e 77 ab be 11 79 77 3c
       0.05620338 -0.09691997 -0.33489698 0.015104548
000220 b8 e9 f8 be 73 4b b5 3d d6 f2 c2 3d ef 4e 28 3f
       -0.48615813 0.088522814 0.095189735 0.65745443
000230 d7 9b d2 3e cd ce 80 be f6 37 06 be 37 75 7f be
       0.4113452 -0.25157776 -0.13107285 -0.24947058
000240 70 72 95 be 87 c1 cb 3e 92 55 5d 3e 0b f3 ba be
       -0.2918887 0.39796087 0.21614674 -0.36513552
000250 52 50 6b 3e 19 5c 05 be 40 5f 05 bd 42 db 09 bf
       0.22979859 -0.13023414 -0.03256154 -0.53850186
000260 89 71 eb 3e 91 ec ae 3e 37 73 ff be 16 40 76 be
       0.45985058 0.3416486 -0.4989259 -0.24047884
000270 52 6e f2 bd 96 e6 1a 3e 2f bb 26 bf 7a b5 6a 3d
       -0.11837448 0.15127024 -0.6512937 0.057301976
000280 80 b0 48 3d 89 04 cd 3e dc c6 2f bd 2d b9 0f c0
       0.04899645 0.40042523 -0.042914256 -2.2456772
000290 4f c6 99 3e a8 78 67 3e 65 3d c6 bd 1b 1c 70 bf
       0.3003411 0.2260462 -0.09679679 -0.93792886
0002a0 c9 12 df 3e 0c 27 ff be 59 b8 22 be 66 b3 dd 3d
       0.4356902 -0.49834478 -0.15890636 0.10825233
0002b0 79 0c 91 bd ec 13 c5 3e ce 4c 3e be 67 9f 7b 3e
       -0.07082457 0.38491762 -0.18583986 0.24572526
0002c0 7c 21 0e bd b9 46 7e bd 23 61 9a 3e 03 80 14 3f
       -0.034699902 -0.062079165 0.30152234 0.5800783
0002d0 e3 5e 24 3e b1 dd bb bd f7 39 ff be e4 39 88 be
       0.16051821 -0.09173144 -0.4984891 -0.26606667
0002e0 33 5c 99 bf d6 97 97 bf c5 40 40 be 19 61 66 bd
       -1.1981262 -1.1843212 -0.18774708 -0.056244943
0002f0 df 1b 07 bd d1 7e dd bf d2 f8 15 be 95 ee 77 3e
       -0.032985564 -1.7304326 -0.14645699 0.24212106
000300 10 d5 20 be 33 f7 e0 be 51 de 14 3e ce 0e 1c c0
       -0.15706277 -0.43938598 0.14537932 -2.4384036
000310 00 2a 5b bc 6e 99 3f be cf d5 4d bf 3a 98 17 3f
       -0.013376713 -0.18710873 -0.8040437 0.59216654
000320 71 7c 48 3e 89 54 d5 3e ce eb 05 3f ce 6c 4b 3d
       0.1957872 0.41666058 0.52312934 0.04966431
000330 33 91 77 be d1 5a 5c bc 04 0d 9e bf 44 62 90 bd
       -0.24176483 -0.013449387 -1.2347722 -0.07049993
000340 a7 39 81 be 1a 6b e2 3e a0 55 bd bb c1 70 d1 3d
       -0.25239298 0.44222337 -0.0057780296 0.10226584
000350 68 54 da 3e a5 74 5e be 5b 24 53 3e 13 bf 12 bf
       0.42642522 -0.21724184 0.20619337 -0.57322806
000360 5e 1b db 3e 28 e3 ef be f5 47 8e 3e 31 19 c9 3d
       0.42794317 -0.46852994 0.27789274 0.09819258
000370 4a 06 61 3e 02 d4 bb 3e 48 b3 cd bd 41 11 17 be
       0.21975055 0.36685187 -0.10043961 -0.14752676
000380 87 c0 9e be ec 4a aa 3e 15 b7 e0 3d b7 66 83 bd
       -0.31006262 0.33260286 0.1097242 -0.06416076
000390 15 ad 34 3e c9 0f 55 bf 79 6f 68 3d 92 0a c6 3e
       0.1764415 -0.8322721 0.056746934 0.3867994
0003a0 05 56 a9 bb 47 6b 61 3e 4f 90 df 3d 8f 70 c0 bc
       -0.005167725 0.2201358 0.109161966 -0.023491172
0003b0 ce bf 30 bf 20 be 94 bc f2 16 51 be 2e c1 c4 bd
       -0.6904267 -0.018157065 -0.20418909 -0.096071586
0003c0 f1 df 5f be 1a 95 96 3d 2a 62 ad 3d f3 4c f7 3e
       -0.2186277 0.073526576 0.08465989 0.48300895
0003d0 70 22 90 3d 8d 0f 39 3e 6d 6c 4c 3e 2d 79 a6 3c
       0.070378184 0.18072338 0.19963236 0.020321453
0003e0 da 51 5a 3e fe 40 ec be f7 ae a5 bd b8 4d fd bd
       0.21320286 -0.46143335 -0.080900125 -0.12368339
0003f0 77 e9 86 bd a7 20 cc be da 28 19 3d fc 2d e6 bd
       -0.06587499 -0.39868662 0.037392475 -0.112392396

base.2.bias f4 [128]
000000 ce 52 6a 3e 6c f4 69 3e 50 a2 6c 3e a4 3d 69 bc
       0.2288315 0.22847146 0.23108792 -0.014235888
000010 f0 1c 1c bc ac fa 88 3e 24 ad ce bb 52 9f 5d 3e
       -0.009528384 0.26753747 -0.006307261 0.21642807
000020 fa 7e 59 3e 96 9b fd bc 72 43 ae 3a 0a d7 23 3c
       0.21239844 -0.030957978 0.0013295247 0.01
000030 7b 30 6a bb a9 96 8c 3e bc 78 aa 3e 11 40 68 3e
       -0.0035734463 0.27458695 0.33295238 0.2268069
000040 63 08 67 3e 03 3e 7e 3e ec 4e 75 3e 87 b2 86 3e
       0.22561793 0.24828343 0.23955888 0.2630808
000050 5d 06 98 bc e7 05 81 3e 0a d7 23 3c f2 56 af bb
       -0.018557722 0.25199816 0.01 -0.005350941
000060 9c 91 68 3e 88 8c 6a 3e 88 22 b0 3e 18 c2 81 3e
       0.22711796 0.22905171 0.34401345 0.25343394
000070 f3 6a 64 3e 0a d7 23 3c d2 af 70 3e 3f 96 69 3e
       0.22306423 0.01 0.2350457 0.2281122
000080 ee 89 63 3e 46 6a 61 3d 13 1b 81 bb 3f 83 10 bd
       0.22220585 0.05503299 -0.003939995 -0.035281416
000090 00 73 cc bb 91 6d 84 3e 4d f2 c5 bc 97 0e b0 bb
       -0.006239295 0.25864843 -0.02416339 -0.005372833
0000a0 fd 15 76 3e 26 36 55 3e f6 04 1e 3e 0a d7 23 3c
       0.24031825 0.20821437 0.1543158 0.01
0000b0 96 f5 76 3e cd 89 b7 bc e6 0c 69 3e 0a d7 23 3c
       0.24117121 -0.022404576 0.22758827 0.01
0000c0 68 97 7a 3e 53 49 91 bc d2 57 59 3e 92 41 75 3e
       0.2447182 -0.017735159 0.21224907 0.23950794
0000d0 46 a6 b0 3e 30 d3 fc bc 49 d6 63 3e 47 fe 61 3e
       0.34501857 -0.03086242 0.22249712 0.22069655
0000e0 36 7d e2 bc 1c e9 64 3e d4 18 63 3e 8d 6c 4b bb
       -0.027647596 0.22354549 0.2217744 -0.0031040043
0000f0 cb 3c c8 bc 0a d7 23 3c 99 a0 7e 3e 5e 0d 24 bd
       -0.02444305 0.01 0.2486595 -0.04005181
000100 0a d7 23 3c b6 e1 69 3e 7d 9f 63 3e 2a de 8b 3e
       0.01 0.22840008 0.22228809 0.27317935
000110 86 5b 41 3d f4 35 a5 bb 9b aa 6b 3e 97 96 c1 bc
       0.047206424 -0.005041832 0.230143 -0.023631377
000120 62 40 8b 3e d5 37 74 3e 32 e9 a1 ba c0 c1 7d 3e
       0.27197558 0.23849423 -0.0012352823 0.24780941
000130 55 a2 59 3e 0a d7 23 3c bc 4d 71 3e 9c e2 16 3e
       0.21253331 0.01 0.2356481 0.14734882
000140 00 dc 7d 3e a3 43 84 3e 4d 7f 4b 3d f3 97 14 bc
       0.24790955 0.25832853 0.04968195 -0.009069431
000150 47 a5 57 3e b1 06 51 3e 25 1f bb 3e 52 1a 65 3e
       0.21059142 0.20412709 0.365472 0.22373322
000160 22 a2 d2 ba ef 26 88 3e 0a 50 6e 3e 0a 0f 5c 3e
       -0.0016070048 0.26592204 0.2327272 0.21490112
000170 5c e2 4d 3e 32 f6 b4 3e 6f 6c 69 3e e8 10 7d bc
       0.2010588 0.35344082 0.2279527 -0.015445925
000180 4d 5a 64 3e 4e ea 71 3e 6f 7b 54 bc 9e 15 54 3e
       0.22300072 0.23624536 -0.012968882 0.20711371
000190 44 c1 b8 bc 2f 7b 5e 3e 52 56 77 3e 0a d7 23 3c
       -0.022553094 0.21726678 0.24154022 0.01
0001a0 54 51 6e 3e 87 02 6d 3e 15 c6 56 3e 72 6f a3 be
       0.23273212 0.23145495 0.20974 -0.31920964
0001b0 0a d7 23 3c 7c 65 94 3e 09 e2 db bb 51 5e 77 3e
       0.01 0.28983676 -0.006710295 0.24157073
0001c0 c0 23 72 3e 9e da 61 3e ca f8 c5 bb 3c 6d 6c 3e
       0.2364645 0.22056052 -0.006041621 0.23088545
0001d0 27 11 59 3e 8b 6d 7f 3e a5 0f 8c bc 17 c1 67 3e
       0.2119795 0.24944131 -0.017097304 0.22632252
0001e0 89 c0 6b 3e d4 04 d6 3a fa b2 16 bc 46 fb 00 bc
       0.23022665 0.0016328343 -0.009197945 -0.007872408
0001f0 c6 74 5c 3e b5 05 03 3b 2c 59 9b be 2a 0f 9b bb
       0.2152892 0.0019992415 -0.3034147 -0.0047320323

actor_mu.0.weight f4 [1, 128]
000000 14 be ce 3d 5b 07 88 3d 67 39 61 3c 9e 4b 98 bd
       0.10094848 0.06642028 0.013746596 -0.07436298
000010 4a 54 94 bd 62 cd 72 3e 4d 9d 16 bb 8e fd a0 3d
       -0.07242639 0.2371116 -0.0022981942 0.07860862
000020 00 e3 b8 3d bc 79 34 3d d9 59 7b 3d 26 55 5a 3d
       0.09027672 0.044061407 0.061364982 0.05330386
000030 da cb 37 bc 67 b4 63 3d af 3a 8b 3e ec 2f 50 3d
       -0.011218036 0.055591967 0.2719321 0.05082695
000040 6c 67 1f bc 7c fa 42 3e 4b d5 00 3d 76 fd 40 3e
       -0.009729248 0.19040865 0.031453412 0.18846688
000050 55 8f 6a 3c a5 87 30 3e 42 c4 fa bc b0 a7 97 3d
       0.0143164 0.17239244 -0.030611161 0.07405031
000060 c2 0e 8d 3d 1b f6 10 3d 92 7d 7e 3e 01 9f 83 3e
       0.068875805 0.035390954 0.24852589 0.25707248
000070 0c 14 45 3d 55 4f 17 bd d3 57 c6 3d 11 e1 e7 3d
       0.04811482 -0.03694089 0.0968472 0.11322225
000080 0a 4c 36 3e c5 81 53 3e ac 9c b3 bc c8 e1 22 bd
       0.17802444 0.20654972 -0.021925293 -0.039766103
000090 ef da 97 bd fc be 9a 3e 66 f7 93 3d ef d7 a4 bd
       -0.07414805 0.30223835 0.07224922 -0.080489986
0000a0 9e e8 33 3e 78 83 29 3c 01 dc a9 3e d7 d0 48 bd
       0.17569205 0.010346286 0.33175662 -0.04902729
0000b0 57 ea 49 bd 58 63 c6 3d 1e 98 12 3e 84 7a 95 bd
       -0.04929575 0.09686917 0.1431584 -0.072987586
0000c0 94 1a 8f 3e 8d da 18 3b 37 b2 39 3e 4e 47 2e 3e
       0.27949965 0.0023323626 0.1813439 0.17019388
0000d0 8f ad 5c 3e 60 91 13 3c e5 d9 28 3e 80 53 5a 3c
       0.21550582 0.009006828 0.1648937 0.013325572
0000e0 c2 b3 2e bd 35 63 b7 3d 4e 2a 1e 3e 00 3b ba bc
       -0.0426519 0.08954469 0.15445825 -0.022733212
0000f0 25 65 b6 3c dc 11 10 3d d3 7a 08 3e 9e a9 6c bd
       0.022265026 0.035173282 0.13328104 -0.057778947
000100 d4 32 8f bc 47 f5 2a 3d f2 d0 f8 bc fb c5 93 3e
       -0.017480291 0.04173782 -0.03037307 0.28861985
000110 1d 62 19 3e 84 a4 74 3d 73 8e 2c 3e 92 6a 12 3c
       0.14978833 0.059727207 0.16851215 0.008936541
000120 b0 8b b9 3d 0e b9 c1 bc bd 24 a8 bd 6b 67 9d 3e
       0.090598464 -0.023647811 -0.08210132 0.30742964
000130 b9 5c 09 3e a8 ec e0 bc e4 2c 16 3e 81 e3 e8 bc
       0.13414277 -0.027456596 0.14665562 -0.028428795
000140 aa 12 48 3e e6 dc 1c 3e 85 60 03 3e f2 1a b6 3b
       0.1953837 0.15318641 0.12829788 0.0055574114
000150 f4 6c 0f 3e f6 9b 65 3e 42 4d 89 3e 1f 53 fd 3d
       0.14006406 0.22422776 0.26816756 0.1236937
000160 6b 6e 1e bd 9b 9c 22 3e 17 c0 13 3e f8 30 1c 3e
       -0.03867952 0.15880053 0.14428745 0.15253055
000170 60 5e 03 3e bf 28 91 3e 81 97 fd bb df 7d b0 bd
       0.1282897 0.283514 -0.007739008 -0.08617758
000180 51 bc 38 3e bb 71 59 3e 23 07 d6 3c 7e 3c 50 3e
       0.18040587 0.21234791 0.02612645 0.20335576
000190 f8 d5 03 3d db 32 72 3e d4 77 b0 3d 90 c4 2c bc
       0.03218648 0.23652212 0.086166054 -0.010544911
0001a0 69 c7 b1 3c 37 04 02 3e 3b 54 23 3e 62 61 3a 3e
       0.021701531 0.1269692 0.159501 0.18201211
0001b0 d4 61 8b bd a8 7d 64 3e 4f 3e 7d bd a2 6b f6 3d
       -0.068057686 0.22313559 -0.061827 0.12032248
0001c0 47 85 af 3d 62 65 b5 3d 70 29 83 bd fa 49 df 3d
       0.085703425 0.08857228 -0.06404388 0.10902782
0001d0 10 7c e9 3d c5 04 9a 3d fa 7a 3a bd 8b 3a 14 3e
       0.11400616 0.07520441 -0.045527436 0.14475457
0001e0 11 dc bb 3c 70 f7 02 3d 40 77 9e 3d c5 91 55 3d
       0.022932084 0.031974256 0.07737589 0.05214097
0001f0 dc f1 ec 3d 32 85 5e bd af a2 a4 3d 97 9c 30 bd
       0.115695685 -0.054326244 0.08038842 -0.043118086

actor_sigma.0.weight f4 [1, 128]
000000 f7 7a 33 3f 6d a7 01 3f 28 81 3e 3f 73 e9 3b bd
       0.70109504 0.50646096 0.74415827 -0.04587693
000010 a4 bb c9 bb cb ed 8c 3f a1 66 93 bd 77 f4 35 3f
       -0.0061564017 1.1010069 -0.07197309 0.7107615
000020 f8 7e 09 3f fe 43 cb 3c 72 4c be 3d 00 1a a1 3a
       0.53709364 0.024812695 0.092919245 0.0012291074
000030 8f 28 b1 bc b6 2d 9d 3e b1 92 2b be 04 9c 19 3f
       -0.021625785 0.30698937 -0.16755177 0.60003686
000040 5e 84 14 3f c4 d4 55 3f ba e6 47 3f fa a3 75 3f
       0.58014476 0.8352778 0.78086436 0.95953333
000050 06 0d 04 bc 18 23 61 3f c8 05 66 bc e1 1c 29 bc
       -0.008059746 0.87944174 -0.014039464 -0.010321827
000060 90 28 4a 3f 1e 31 28 3f c2 27 1b be 3a 70 3b 3f
       0.78968143 0.65699947 -0.15151885 0.7321812
000070 3a d7 0e 3f a3 cc a1 3d 0d 27 07 3f 69 2c 20 3f
       0.5579716 0.079003595 0.5279396 0.62567765
000080 1e 74 09 3f f5 ec 85 be 23 0b 7c bd c2 2a 63 bd
       0.53692806 -0.26157346 -0.06153406 -0.0554607
000090 2b 5e 1e bd ff b8 7d be d5 b4 e4 bb 55 10 73 bc
       -0.038664024 -0.24777602 -0.0069795647 -0.014835437
0000a0 39 a0 49 3f f4 0e 36 3f bb 21 85 bf d8 84 01 bc
       0.78760105 0.71116567 -1.0400919 -0.007905208
0000b0 80 84 4a 3f 90 fb 31 be 21 f6 0c 3d b8 73 fd bc
       0.7910843 -0.1738112 0.034414414 -0.030938968
0000c0 f2 21 3e 3f 72 53 73 bc d9 35 16 3f ba ad 44 3f
       0.74270546 -0.014851438 0.58675915 0.76827586
0000d0 2e c8 28 be 8f 1a 96 3d 44 ce d6 3e ae 75 4e 3f
       -0.16482612 0.073292844 0.41954243 0.80648315
0000e0 cd cd 4e 3d 75 8b 0e 3f 96 2e 24 3f 1e 4e 9c bd
       0.050489236 0.55681545 0.64133584 -0.07632087
0000f0 a4 55 12 3c b8 06 8e 3c 63 7e 57 3f d8 84 07 3d
       0.008931551 0.017337188 0.84177226 0.033085674
000100 e5 56 2d bd 9f f9 2c 3f 4d d6 38 3f ff b8 80 3f
       -0.042319197 0.6756839 0.72202 1.0056456
000110 6d ba f6 bd ba 0b e3 3c 19 fd 5d 3f d8 74 d6 bc
       -0.12047277 0.027715553 0.8671432 -0.026178762
000120 8b 28 58 3f 61 29 66 3f ea f5 b5 bb 5c 9d 59 3f
       0.84436864 0.8990689 -0.005552997 0.85005736
000130 b9 15 03 3f 20 e1 cc bb 31 f4 34 3f 34 c7 0f bf
       0.5120502 -0.006252423 0.70685107 -0.56163335
000140 2c a3 74 3f ce af 2f 3f 0c 12 67 3e 7e f9 d2 bb
       0.9556148 0.6862763 0.22565478 -0.006438433
000150 6c 00 54 3f cb d4 0e 3e 19 f6 00 3f fd 18 c5 3e
       0.82813144 0.13948362 0.50375515 0.38495627
000160 74 83 1d bd 41 84 46 3f 34 73 26 3f 32 cc 28 3d
       -0.03845544 0.77545553 0.65019536 0.04121036
000170 dd af 29 3e 09 12 d9 3e c8 aa 2f 3f 93 71 ba 3d
       0.16570993 0.42396572 0.68619967 0.09103694
000180 0d 19 0a 3f 44 24 22 3f a9 37 36 3d dd d0 db 3e
       0.53944474 0.63336587 0.044486675 0.42932788
000190 b0 30 16 bc 32 4d b3 3e ca 5c 5d 3f c0 9f bb 3a
       -0.009166881 0.35019833 0.8646971 0.0014314577
0001a0 39 57 63 3f 2a 60 11 3f bb b9 2d 3f 1f 11 98 bf
       0.88804966 0.5678736 0.6786153 -1.1880225
0001b0 31 50 9c 3d 2e 87 80 3f 26 2e c1 3d 55 e9 2d 3f
       0.07632483 1.0041254 0.0943263 0.6793416
0001c0 7a f7 40 3f e1 34 c7 3e 66 33 08 bd fe c2 06 3f
       0.7537762 0.3890753 -0.033252142 0.52641284
0001d0 16 60 92 3e d0 e3 5b 3f 99 92 44 3c 82 19 48 3f
       0.28588933 0.8589449 0.011997842 0.7816392
0001e0 47 b0 62 3f 9a 5c 9a bd 1c 42 8c bd b3 7e f5 3c
       0.8855023 -0.075371936 -0.06848547 0.029967641
0001f0 43 92 11 3f a9 66 62 bd 1a b3 a1 bf f0 05 86 bd
       0.568638 -0.055273686 -1.2632782 -0.06544101

critic.0.weight f4 [1, 128]
000000 62 df 60 bf ef 70 76 bf 2b ca 48 bf d7 a1 31 3d
       -0.87840855 -0.96266073 -0.78433484 0.043367233
000010 a5 92 5e 3c 26 f6 9d bf 3a 0b 74 3b 36 23 60 bf
       0.0135847675 -1.2340744 0.0037238137 -0.8755373
000020 c2 54 53 bf ee 09 80 3c 2b 76 a4 3d 82 5d 6f 3d
       -0.82551205 0.015629735 0.08030351 0.058438785
000030 86 f8 bc 3c cd a9 6b bf 84 22 58 3f 1c 75 56 bf
       0.023067724 -0.9205597 0.84427667 -0.83772445
000040 37 7d 4a bf 9f 2b 92 bf dc 2e 7e bf 54 fe 87 bf
       -0.7909731 -1.1419562 -0.9929025 -1.062449
000050 e9 6d 18 3c 4b 0d 95 bf 0d 57 5b bd a3 48 43 3c
       0.009303548 -1.1644682 -0.053549815 0.011919173
000060 66 d8 54 bf f3 82 4e bf 4f a0 4c 3f 2d ba 88 bf
       -0.831427 -0.8066856 0.7993211 -1.0681816
000070 9f 05 6a bf 09 e7 9b 3d 3c 1b 60 bf 27 66 66 bf
       -0.9141483 0.07612426 -0.87541556 -0.8999962
000080 44 04 5d bf d7 7d 97 3e 33 46 91 3d 5c 52 1c 3d
       -0.86334634 0.29588196 0.070934676 0.03816448
000090 ee 42 64 3c bd 64 4e 3f 96 66 e4 3c cd f7 76 3d
       0.013931973 0.80622464 0.027880948 0.060294915
0000a0 a8 86 7b bf fe d9 46 bf 68 ee 00 3f 77 ab 85 bd
       -0.98252344 -0.7767638 0.5036378 -0.06526845
0000b0 26 d5 68 bf e4 0f 18 3f bb 61 20 bf a0 9f 33 3c
       -0.9095024 0.5939925 -0.62649125 0.010963351
0000c0 50 77 8c bf 4f e2 cd 3c 6f b4 2e bf 57 c7 48 bf
       -1.0973911 0.025132326 -0.6824407 -0.7842917
0000d0 77 78 4c 3f 64 5f 3d 3d 40 07 2d bf 9c 36 5c bf
       0.79871315 0.04623355 -0.6758919 -0.8602083
0000e0 34 64 ac bc 7e 3e 51 bf 91 4b 63 bf 12 7c a6 bc
       -0.021043874 -0.8173598 -0.8878718 -0.020322833
0000f0 7c 06 5c 3d 74 cf d6 bc ed 5c 8e bf e2 79 da 3b
       0.05371712 -0.026221968 -1.1122109 0.0066673616
000100 01 5c 9c bd d3 ee 40 bf 1a c8 3c bf 8b 8e 87 bf
       -0.07634736 -0.75364417 -0.7374283 -1.0590376
000110 49 b8 25 3f 70 14 30 3d d9 6e 85 bf 4e 27 bf bb
       0.6473432 0.04298824 -1.0424453 -0.005833543
000120 28 46 5e bf f8 3d 78 bf 0a 8b b5 3c 2d 62 8c bf
       -0.868258 -0.96969557 0.022161026 -1.0967461
000130 8c c6 47 bf 56 84 5f 3d 6e d4 5c bf 7f 2b fe 3d
       -0.78037333 0.054569565 -0.8626164 0.1241064
000140 0b ce 99 bf f4 0a 84 bf 03 eb 74 3f 20 0b 85 3c
       -1.2016004 -1.0315843 0.956711 0.016240656
000150 84 51 80 bf bc 44 29 bf dd c4 b2 bf b6 57 26 bf
       -1.0024877 -0.66120505 -1.3966328 -0.64977586
000160 63 c8 25 ba 25 49 85 bf c8 86 82 bf 68 63 1f bf
       -0.00063241104 -1.0412947 -1.0197382 -0.62261057
000170 fe 44 15 bf dd 51 a6 bf a6 f0 20 bf 8b 2f 76 3d
       -0.583084 -1.2993733 -0.628672 0.060103934
000180 57 fc 23 bf e8 f2 39 bf b7 36 c4 3c b1 a7 2d bf
       -0.64056915 -0.7263627 0.023951871 -0.67834
000190 05 ac 01 3d b8 da 2c bf 86 8b 78 bf 86 4a 0c 3d
       0.03165819 -0.6752124 -0.97087896 0.03425076
0001a0 4c b7 7f bf 41 8e 5d bf 00 5e 3d bf 96 4b e5 3f
       -0.99889064 -0.8654519 -0.7397156 1.7913692
0001b0 6b a9 87 3d 79 a4 a0 bf 17 33 1f 3d bc d1 8b bf
       0.06624111 -1.2550193 0.038867082 -1.0923381
0001c0 85 60 81 bf c4 8c 29 bf f0 f7 50 3d a4 b3 5a bf
       -1.010758 -0.66230416 0.0510177 -0.8543036
0001d0 b6 a8 30 bf 73 8a 88 bf a5 93 38 3c 86 8d 6b bf
       -0.6900743 -1.0667251 0.01126567 -0.9201282
0001e0 97 2e 68 bf 71 0f 5d bb 5d b3 94 3d 77 b8 39 3c
       -0.9069609 -0.0033731128 0.07260773 0.011335484
0001f0 61 c3 47 bf f4 be 67 3c 1a 3f f8 3f ed cb 45 3c
       -0.780325 0.014144648 1.9394257 0.0120725455
